hangman_dqn.pth (torch, 317573 bytes, 6 tensors)

net.0.weight f4 [128, 458]
00000000: cadf 0ebe 5289 ff3d 69cb 83bd cc66 533b
00000010: 6691 823c 7d10 f4bd 98d6 cfbb 167f 0abe
00000020: bd5e 033e b68f babe 4856 4c3e 3073 b8be
00000030: 6cf8 143e 03aa 8f3d 0c8f 5b3e 584f f03e
00000040: 88b6 843b bb3a 62be 9bc6 163e 0887 c4bd
00000050: 07c7 9dbe 1297 6d3e dcd2 84be 271b 143d
00000060: fd76 763d 7df2 133d b719 ff3d 5873 6e3e
00000070: edfa 91bc 80e3 8dba 329b a13d 4f9f 9d3b
00000080: e17f 083d bb6f 313d 4334 ec3d 8bdc 033e
00000090: 26cc b9bc 770e babc 5d01 2ebd fdfc 35bd
000000a0: 5d7e e6be b49b ce3d 8b8f af3c 0078 baba
000000b0: f484 09be 3e0e 163e a207 fbbc be68 013e
000000c0: 3430 95bd 009b c8bb 6b83 a2bc a7b2 483e
000000d0: ec01 1d3c 8188 2ebd a676 b63e 8d98 73bd
000000e0: ff02 0fbe 680b d5bc 1634 eabe 6052 30bd
000000f0: 575b b7bd bf45 223d 584c eebb c94b 2a3d
00000100: 5e20 fc3c 5e16 ec3d 5324 74be 6c73 c33d
00000110: 7406 273e 52f3 f6b9 d45b 19bc 24aa 19bd
00000120: d350 6dbc 1948 173e a231 953e c0e9 ac3d
00000130: 1ca5 c93e ef2c 2d3d 086c 18bd 93b7 0d3d
00000140: cf10 0abd 79ea 2c3d 3dcc 883c cf28 233e
00000150: 102d 083e e966 613e 46e0 59bd 484b 04bd
00000160: 268d 993c 6649 e9bd 536c 96be ae95 3c3d
00000170: 1322 7d3d d9a2 be3d 2bae c53e 32a6 31be
00000180: 87bd 043d ae16 d43c 7db4 24be 7f41 b53d
00000190: dc03 4c3a 016f 813d 667e 953c 9552 353d
000001a0: 9806 b43b c325 abbb 0125 b4bc 6059 d4bb
000001b0: 1ce8 64be eed5 ba3c bc37 a23e 8c15 a9bd
000001c0: e99e 1e3e 6a5a cd3c 891a b0bc 00f6 fdb9
000001d0: d9f8 863e aa75 b63d c0d8 e8ba 1ace b83d
000001e0: 7855 bc3d db8d 07be b618 a5bd d338 abbb
000001f0: f517 18bd 83a3 febe ba36 a5bd 44c0 0fbe
00000200: 0f38 663d 96ec 9b3c c7c8 ae3d d626 f33c
00000210: c93b 90bd 8feb 383d b64e 853d d0cc 973d
00000220: bbcb 0c3d b238 3a3e 0dc6 c2bc 8cc9 f6be
00000230: 2177 1a3d c863 bbbb a80d 25be d333 633e
00000240: dad6 bb3c 420c a83c 7a3b 2cbd df0d e9bb
00000250: ceb0 f23b e990 fcbe dd30 163d 66e1 853c
00000260: fb7e 623e 294f c03c e6ec d2bd 7e4b f33d
00000270: 5096 87bb 8dbb 083d 77fb b3bc bab3 903e
00000280: 6c67 2b3c 1dd6 dc3d 60b3 d43e f88c a6bb
00000290: 24c1 17bd 7072 c23b f598 3cbe 1206 32bd
000002a0: 6031 3ebd 2359 b03d 7b33 4c3d 9ba8 1fbd
000002b0: faa6 fd3c 2edc 7fbe 4b0b 2d3d 6033 cebd
000002c0: 9374 0abe 6359 e53c c409 0f3c 090d 48be
000002d0: cc7b 29be fd8b b13d 6b8f 2f3c 5ed4 0abd
000002e0: 1dbb 3e3d c210 e43c c586 143e a2c3 b9bc
000002f0: 7d5b 3e3e 144b 843d 5461 343c a860 7e3c
00000300: 9531 e13d 97b4 b3bd d045 07bc ba5b 6c3e
00000310: 05ca bebe 16ab 02bd b14f 3abd 9837 a7bc
00000320: bcc5 eb3d bc5a 2dbc 4c64 ea3d 554a 643a
00000330: ee0d a83c aaf8 f43c fd47 10bd 5c2b 543c
00000340: b6fa 0abe 10f3 75bb f0f0 5d3b 8622 de3c
00000350: 525a 11bd 7ee9 05bd bdd0 19bd f034 0a3d
00000360: c17b c9be ce83 fe3c 8fb5 9abc 5c34 81bc
00000370: c9a7 48be 8a3c 8c3c 38f2 a9bc 4223 103c
00000380: fafc 7f3e f437 333c 7dd1 05bd 2126 a7bc
00000390: 0e12 0fbe 5304 c1bd 6f25 e73c c23e 88bd
000003a0: be60 a8bc e993 123d 7f7c 6f3e 91ca cf3c
000003b0: acda 303e 48b1 c2bc 6824 453c 08a3 88bb
000003c0: a491 4c3e 41e8 36bd 7a48 a3be 55d2 fc3d
000003d0: febb 00bd 7e14 4d3d 0410 813e dee3 173e
000003e0: 34db 33bc 7083 5f3b b33f 3a3d ea4e b8bd
000003f0: 5d6a 233d 3d7a 8abc b387 07be b5e0 adbc
-0.13952556 0.12477364 -0.06435282 0.0032257317 0.015938472 -0.119172074 -0.0063427202 -0.13525042
0.12829109 -0.36437768 0.19954789 -0.3602538 0.1454789 0.07014849 0.21441287 0.46935534
0.0040500797 -0.22092716 0.147242 -0.09596068 -0.30815908 0.2320216 -0.25942123 0.036158707
0.06017207 0.036119927 0.124560766 0.23286188 -0.017819846 -0.0010825247 0.07890929 0.004810251
0.03332508 0.043319445 0.11533406 0.12877099 -0.022680353 -0.022711975 -0.04248177 -0.04443072
-0.45018283 0.10088292 0.021430751 -0.0014226437 -0.13429624 0.1465387 -0.030643288 0.12637612
-0.07284585 -0.006121993 -0.019838056 0.195994 0.009582978 -0.04261065 0.35637397 -0.059471656
-0.13965987 -0.026006415 -0.45742863 -0.04304731 -0.089529686 0.039617296 -0.0072722845 0.04157618
0.030777153 0.11527704 -0.23841982 0.09543499 0.16311055 -0.00047102064 -0.009360272 -0.037515774
-0.014484602 0.14773597 0.2913943 0.08443022 0.3938378 0.04227918 -0.0372124 0.0345989
-0.033707436 0.042215798 0.01669895 0.15933536 0.1329844 0.22011913 -0.0531924 -0.032298356
0.018744063 -0.11390953 -0.2937952 0.046041183 0.061800074 0.093084045 0.38609442 -0.17348555
0.03240731 0.02588972 -0.16084476 0.08850383 0.00077825575 0.063200004 0.018248748 0.04426821
0.00549395 -0.0052230074 -0.021990301 -0.006480381 -0.22354168 0.022807088 0.31683147 -0.08256063
0.15490307 0.025067527 -0.021497028 -0.00048439205 0.2636173 0.089091614 -0.0017764792 0.09023686
0.09195989 -0.13237707 -0.08061354 -0.00522528 -0.037132222 -0.49734125 -0.08067079 -0.14038187
0.056205805 0.019033711 0.08534389 0.029681604 -0.07042653 0.04514652 0.065091535 0.07412112
0.03437398 0.1818569 -0.023776079 -0.48200643 0.037711266 -0.005718682 -0.1611849 0.22187738
0.022929598 0.020513657 -0.04204891 -0.0071122493 0.0074063307 -0.49329308 0.036667693 0.01634283
0.22118752 0.023475247 -0.10299091 0.11879633 -0.0041377917 0.033381987 -0.021970494 0.2826212
0.010461669 0.10783026 0.41543102 -0.0050827228 -0.037049428 0.005934052 -0.18417723 -0.04346282
-0.046433806 0.086107515 0.049853783 -0.038979154 0.03096341 -0.24986336 0.042247098 -0.10068393
-0.13521032 0.027996724 0.008730356 -0.19536223 -0.16551131 0.08669279 0.010715346 -0.033893935
0.046565164 0.027840022 0.14504535 -0.022676293 0.18589588 0.064596325 0.011009533 0.015525974
0.10995785 -0.08774679 -0.008256391 0.23081866 -0.37263504 -0.03190144 -0.045486156 -0.020412251
0.11512324 -0.010580715 0.11444911 0.0008708586 0.020514455 0.029903729 -0.035224903 0.012949791
-0.13572201 -0.003752891 0.0033865534 0.027116071 -0.035486527 -0.03269338 -0.037552584 0.03374189
-0.3935223 0.031068709 -0.018885402 -0.015772037 -0.19595255 0.017118711 -0.020745382 0.008797469
0.24998847 0.010938633 -0.032670487 -0.020403923 -0.13971731 -0.09424653 0.028216092 -0.06652595
-0.020553943 0.03578559 0.23387335 0.025365146 0.17270917 -0.023766175 0.012032606 -0.0041698255
0.19977432 -0.04465509 -0.31891233 0.12344805 -0.031429283 0.05006837 0.2520753 0.14833018
-0.010977555 0.0034105442 0.045470905 -0.08999427 0.039896358 -0.01690399 -0.13235359 -0.021225313

net.0.bias f4 [128]
00000000: e0c5 833d caee 54bc fe0c cb3b bd95 c0bc
00000010: 4ed3 a53c 86a5 83bd f049 e23c ce19 babc
00000020: e1b5 0cbd df00 66bd c2cd c13c 32c1 a73c
00000030: 6d7b 573b 7461 333d 75ca 55bd 31dc 2a3c
00000040: 763c fcbc 25d7 c63d e397 833d 02f5 4bbd
00000050: 5a78 1b3c 7d70 21bc e3f9 29bd 07d0 88bd
00000060: 97be 7cbc 1cc0 6fbc 1606 05bc 524d 913c
00000070: 2192 e33b c2a4 713d 062a 7cbd 1bc2 563c
00000080: 9ab1 b9bb 927e b93b 4fab 1cbc 75f6 37bd
00000090: 1e08 1abc dcd3 a0bd 7e23 0dbd fa1b 92bd
000000a0: b2ea 9d3d bb5d c0bb 125b 813d 3a31 fd3c
000000b0: cd8b 08bd 172e 0cbd ec8f cf3c 9d09 62bb
000000c0: c194 60bc f201 41bd 7889 e5bb 54be 293d
000000d0: 3f6a e23b b43d 43bb 2d0a 803d d3dc 313c
000000e0: dd10 f23c a919 cf3c 7e04 053d acbf b4bc
000000f0: dd91 4ebd 62c4 11bd 3c0c 1bbc 5753 9c3d
00000100: b78c f8bc 6550 c7bd 13fe 2b3c 70ec 493d
00000110: f040 e9bc 67ba 23bd 44de 7dbc 2eb5 a63c
00000120: 39a4 41bd 08bd 043c 24af 71bc 8908 383c
00000130: 18ef 3c3b 7b2a 853d 5939 69bc 84c3 be3c
00000140: b4c6 b1bd 72ec 443d 2949 e1bb 3242 08bd
00000150: c6ca 7ebc 8046 803d ac73 ebbc 4bba 8abb
00000160: a9ee bf3c fdee eebb dff5 a6bc a2ed f4bc
00000170: 7574 afbd f356 8e3d 008f 3c3c 2ae4 0ebd
00000180: 96ca 4b3d ca84 273d 7169 47bd bb1f d03c
00000190: fcf1 f83c 8ea5 18bd d2ce 713d 3cd9 fb3c
000001a0: e47e 4bbb 1ae1 bd3c 4f83 af3b d093 11bb
000001b0: 64b1 2dbd 4b77 ecbd afd6 863d 744e 75bd
000001c0: d82b 2b3d 4f07 163d 20c2 2abd 3ced 6bbd
000001d0: 0c61 163c 4604 0ebd 7663 393d a161 be3c
000001e0: e3f0 883d 9a15 f5bc 224f abbd 016c 20bd
000001f0: 5c70 47bc 42d8 303d 6bf4 7c3b b6de 96bd
0.06434226 -0.012996385 0.006196617 -0.0235089 0.02024236 -0.064280555 0.027623147 -0.022717383
-0.03435314 -0.056153174 0.023657683 0.020477865 0.0032879964 0.04379411 -0.05219503 0.010428474
-0.030790549 0.09709004 0.064254545 -0.049794205 0.009489143 -0.009853479 -0.041498076 -0.06680303
-0.0154263 -0.014633205 -0.008119127 0.017737065 0.00694491 0.058995016 -0.061563514 0.013107802
-0.0056669237 0.0056608403 -0.0095623275 -0.044912774 -0.009401349 -0.07852909 -0.034457676 -0.07134242
0.0771078 -0.0058705485 0.063161984 0.030907262 -0.03333645 -0.034223642 0.025337182 -0.0034490593
-0.013707341 -0.047120996 -0.007004913 0.041441277 0.006909638 -0.0029791417 0.06251941 0.010855871
0.029549057 0.02528079 0.032474987 -0.022064053 -0.050432075 -0.035587676 -0.009463366 0.07633083
-0.030340536 -0.09732131 0.010497588 0.04929775 -0.028473347 -0.03997269 -0.015494887 0.020350065
-0.047275756 0.008101709 -0.014751229 0.011232504 0.0028829034 0.06502243 -0.014234864 0.023286588
-0.08680478 0.048077054 -0.0068751764 -0.033266254 -0.015551275 0.06263447 -0.02874168 -0.0042336336
0.023429232 -0.007291673 -0.020380912 -0.029898468 -0.08567134 0.06950178 0.011508703 -0.034885563
0.049753748 0.040898122 -0.04868454 0.025405755 0.030388825 -0.03726726 0.05903513 0.030743234
-0.0031050975 0.023178626 0.0053562294 -0.0022213347 -0.0424055 -0.11546191 0.065839164 -0.05988927
0.04178986 0.036628064 -0.04168904 -0.05759929 0.009178411 -0.034672044 0.04526087 0.023239912
0.066865705 -0.029917527 -0.08364703 -0.0391655 -0.012172785 0.04317499 0.0038597833 -0.073666975

net.2.weight f4 [128, 128]
00000000: 546c 9bbe 595a 13bc e09a af3d 5f15 573e
00000010: d7b0 28be cd86 053e 7d85 453e 3edd 303e
00000020: 45c0 353e 31bb 8c3c 0407 313e 0143 6b3d
00000030: 0af4 f4bd 3d20 e8bd c8b8 813d 7912 59bd
00000040: 9d5e 8b3d 1284 b33c 9e97 cb3d fb62 4d3e
00000050: 4988 1d3e 8b53 883d 9bdc 493e 231d 753a
00000060: 37e9 343e 0a72 ba3d 7560 ed3d cdac c7bd
00000070: d7f1 2abe 08e5 86be c9a5 8e3e 4ef5 d6bd
00000080: 150a 203c 7bd7 cc3d b126 2b3c 8a3e 353e
00000090: 3a75 db3d f71c 01bd 6f7d eebd 4fdc d53c
000000a0: 81e4 48bc 0bf2 4a3e 5d5c 27be aec6 543d
000000b0: 3693 25bd f07f 62be f0ed 3f3c 50de 793e
000000c0: caf7 143d 8ea8 b4bd b752 a53d 18ba 80be
000000d0: 1884 323d 597a 23be a2cb 84bd c4d2 973d
000000e0: c120 7cbe 76b4 e23d 5535 da3d d068 07bd
000000f0: 4433 ed3c b3eb 3c3e f96b 983d 1234 a6be
00000100: 2797 183e 6ce7 843d 0bea 70be a0ca 7c3e
00000110: 4834 723e 1bf2 d43d 5673 093e 4dfb f03d
00000120: 78e5 1e3e 3cab e83c 8d75 16bd baa9 9bbd
00000130: d34c ca3c 3b5d 26be eefe b13e a4bc 4cbe
00000140: 5e6a 2e3e c124 89be 9ff6 303e e589 203e
00000150: fbaf 0e3e 6fa9 bfbb 3e20 c6bd 0006 633d
00000160: 3ab8 63bd c2b3 2cbe 892d 163e c8c7 95bd
00000170: 2179 7c3c 1994 89be ad22 de3d b122 833e
00000180: 0de2 b4bd f16e c23d e04b 723e eb66 e83c
00000190: eb17 bdbc 6833 a73c 6cff 223e 0df8 f1bd
000001a0: 9a4a d2bc 6a49 c5bc c015 4d3d 88a1 29be
000001b0: f2f2 8b3d d0a4 003d 4324 8ebd 23c5 853d
000001c0: 1a00 c63d ea63 34bb 2e8e fb3d e10a 1f3e
000001d0: b005 0cbe f651 793e 8a67 70bd b116 2fbe
000001e0: dbe0 353d 3b86 543d 1c15 22bd 9c27 f2bc
000001f0: e71a fa3d 1b5c 0bbe 8d22 813e b550 e73b
00000200: 269e 53bb 347c e3bd fc90 783c ae30 983c
00000210: 057e 333c fd55 cdbd 3dd6 203d de5b f1bc
00000220: 758e 88bb 8607 b8bd 9794 083d 20aa 89bd
00000230: 33e8 ecbd ef54 50bd d370 653c ebe9 a4bd
00000240: f457 36bd c820 5b3d cc12 d7bd ff3c 8bbd
00000250: 9059 8eba 950b 953c 166e a93c 582c 0a3d
00000260: ebdb d4bd b970 f4bd b3ff 39bb cc57 693a
00000270: af6c b4bd b711 2dbd 2896 5a3d 392c 47bd
00000280: 7146 673d b7d9 e2bd 1188 ecbc 0bc8 87bd
00000290: 8fe6 b4bd 3027 543d 4acd 63bd 4d73 e1bc
000002a0: 5794 ebbc 8a68 0b3d 4856 0b3d 8a01 a03c
000002b0: 5dde ebbc a938 bcbd 1760 43bd c8f3 9bbd
000002c0: fa4d bc3c 849b 9bbc f722 263d 1a03 82bd
000002d0: 36f6 403b 55e2 a4bd a9c7 db3b b30d 58bd
000002e0: 4fce cbbc 0227 69bd f206 953d 5688 57bb
000002f0: 76c5 81bd 95c9 4f3d 7c87 4b3d 76bb 713c
00000300: ec26 d8bd 02f7 60bd 168e 32bd 2c6b 2c3c
00000310: cb1b 623c bab3 1a3d 30ba 613d e998 bbba
00000320: cc9d babd 5975 a33c d9ae 7bbd e34d 8bbd
00000330: d04f cebc 1b8c ac3d c5d8 183d 7919 e9bc
00000340: 9326 533c e122 b73d 81da eabd 8085 ba3d
00000350: 1971 65bd 4b1d a3bd 4403 873c 1f64 fdbc
00000360: d3dc ad3d 011c 05bc d8f4 5abc 4b83 4cba
00000370: 5362 22bc 3f7d 85bb 0f9a 083c 7b22 863c
00000380: 7662 11bd 6267 bfbc fdee cabd cb2e 64bb
00000390: 47bf 32bd 0082 2bbd 2deb 96bd 3b16 69bd
000003a0: 7bd1 943a e7cf 4bbd 34da 523c b832 9e3b
000003b0: c0bc c7bd 3ee2 8e3c 42a2 b9bc 895e 9a3d
000003c0: 6210 68bd c3b6 3ebd fb7e a5bd 031b 24bd
000003d0: 491f cabd eef7 aabd c9e8 c3bd 5330 c0bb
000003e0: e9b8 05bc 7d01 13bd 9ee9 4c3d 5c42 4bbd
000003f0: d17f 1e3d 8b38 0ebd 527e 0fbd e893 7c3c
-0.30356085 -0.0089937085 0.08574462 0.21004246 -0.16473709 0.13039704 0.19289203 0.17271897
0.17749126 0.017179104 0.17287832 0.057436947 -0.11960609 -0.11334274 0.06334072 -0.052996133
0.068051554 0.021913562 0.09941028 0.2005729 0.1538402 0.066565596 0.1971306 0.000935035
0.1766709 0.091037825 0.11590663 -0.09749756 -0.16693817 -0.26346612 0.2786086 -0.10496007
0.009768029 0.10002037 0.0104462365 0.17699638 0.107157186 -0.031521764 -0.11645018 0.026106028
-0.012261511 0.19818895 -0.16343828 0.05194729 -0.040423594 -0.22119117 0.011714444 0.24401212
0.036369123 -0.08821212 0.08072417 -0.25141978 0.043583006 -0.1596464 -0.064841524 0.07413247
-0.2462187 0.110695764 0.106547035 -0.03305894 0.02895511 0.18449287 0.07442469 -0.32461601
0.1490141 0.06489453 -0.2352678 0.2468667 0.23652756 0.103977405 0.13422903 0.11766682
0.15517223 0.028401963 -0.0367332 -0.07600732 0.024694836 -0.16246502 0.34764808 -0.19993836
0.17032763 -0.26785854 0.17281578 0.15677603 0.13934319 -0.0058490555 -0.096741185 0.055425644
-0.055595614 -0.16865447 0.14665808 -0.07313496 0.015409739 -0.26870802 0.10846458 0.25612405
-0.08832178 0.09493817 0.23661757 0.028369388 -0.023082694 0.020410255 0.15917748 -0.1181489
-0.025670338 -0.024082858 0.05006957 -0.16565526 0.068334475 0.031407177 -0.0694051 0.065317415
0.09667988 -0.0027525374 0.12282978 0.15531494 -0.13674045 0.24347672 -0.058692493 -0.170985
0.044403892 0.051885825 -0.039570913 -0.029559903 0.122121625 -0.13609354 0.25221673 0.0070591816
-0.0032290309 -0.11107674 0.015171286 0.0185779 0.010955338 -0.100261666 0.039266814 -0.029462751
-0.004167373 -0.0898581 0.03334483 -0.06721902 -0.11567726 -0.05086225 0.01400395 -0.08052429
-0.044517472 0.05349806 -0.10501632 -0.067987435 -0.0010860432 0.018194 0.020682376 0.033733696
-0.103935085 -0.11935563 -0.0028381168 0.00089013274 -0.08809792 -0.042253222 0.053365856 -0.04862616
0.056463663 -0.11076682 -0.028873475 -0.06629952 -0.08833038 0.051795185 -0.0556157 -0.0275208
-0.028757257 0.034035243 0.03401783 0.019531984 -0.028792555 -0.091904946 -0.04769906 -0.07614857
0.0229864 -0.018995054 0.04056069 -0.06348248 0.0029443628 -0.08050982 0.006707151 -0.05274744
-0.024878649 -0.056921966 0.07276715 -0.003288766 -0.06336491 0.050729353 0.049689755 0.014754167
-0.10554299 -0.054923065 -0.043592535 0.010523599 0.013800572 0.037769057 0.055109203 -0.0014312539
-0.091121286 0.019953417 -0.061446045 -0.06801965 -0.025184542 0.084251605 0.037316103 -0.02845453
0.012887615 0.089421995 -0.114674576 0.09107494 -0.05601606 -0.079645716 0.01648105 -0.03093153
0.084893845 -0.008124352 -0.013364039 -0.00078015466 -0.009911138 -0.0040737684 0.008337512 0.016373863
-0.03549429 -0.023364726 -0.09908865 -0.003481793 -0.043639448 -0.041872025 -0.07369075 -0.056905966
0.0011353934 -0.049758818 0.0128694065 0.0048278235 -0.09752798 0.017441865 -0.022660378 0.075375624
-0.05665625 -0.046561014 -0.0808086 -0.040064823 -0.098692484 -0.0834807 -0.095658846 -0.0058651357
-0.008161762 -0.03589009 0.050027482 -0.049623832 0.038696114 -0.034721892 -0.035032578 0.015416123

net.2.bias f4 [128]
00000000: 3dde 25bd 7e07 c7bc a414 163e 58b6 893b
00000010: adb2 f63d aef4 d63d 000f 57bd c184 b9bd
00000020: 1e40 083d f118 d9bc 29a3 0fbd becb 5fbd
00000030: 88f4 03be be26 8c3d 775d 99bd e934 ceba
00000040: 0cb1 623d eaba 043d f9ce e43d 701e 243b
00000050: 9e93 d93d bd3b a63d 0184 063c a526 383d
00000060: 2c65 cabd 7b9a bcbd 5d3a b53d a7eb 43bd
00000070: 6f83 8e3d d5d4 af3c 1274 f0bb 93db 3d3d
00000080: 6a12 f7bd 2d65 553d 290f 7bbd 19e7 a9bb
00000090: ad8e e73d 5b21 4ebd 4062 0fbc c4c7 e0bd
000000a0: 494c ca3d 1b6b b6bc 55e9 a23c 265e 1c3c
000000b0: 3aa1 ac3d 3965 b53c 849a 14bd 18e8 343d
000000c0: ce62 acbd ce31 80bb 8cc9 d13d 84a7 51bc
000000d0: 753c bbbd 1ac9 613d b619 d0bd 10be 9e3d
000000e0: 5599 223d 354c 71bd 0276 8bbd c528 653d
000000f0: a6a3 103d 6670 013e 6186 9ebd 362f 6fbd
00000100: d597 0bbd 46d3 563c fe4b 05bd e0b9 be3d
00000110: 339c 883c 7c3b ad3d fbe5 0abe 871e e13d
00000120: 8632 7abd 4b65 1dbc 65d5 6abc 9957 e8bb
00000130: 1e10 a63d 0638 5cbd 81df 7a3d c247 52bc
00000140: 6e47 eb3c 7c0e 053b 2f7c 58bd b678 1bbe
00000150: 59f5 0abd ea0e 99bc 69ea 323c 7478 1ebd
00000160: 6f5e ce3c 44f1 92bd 8fe3 103d 9682 30bd
00000170: b313 373d 9606 5cbd f005 b6bd 91e4 91bd
00000180: 7864 c33a 27fc d9bd 0f05 cbbd f764 eabb
00000190: 08b5 57bd a58f 7ebc 6421 dfbc e589 8f3d
000001a0: fee0 c23d d092 dcbc ff04 afbd 0376 e2bc
000001b0: 9f5a 813d 4a9b 583d 0d00 1e3d 6371 983d
000001c0: 39dd 2dbd 8210 83bc 6b1b 0abc f96b 39bd
000001d0: d6c8 e5bd 744c 12bd 106f bdbd 0b0c 0dbd
000001e0: b2a4 a33d 9156 fbbc 6a80 c8bd 9c28 ad3b
000001f0: 658e 18ba c88c 3ebc 21e3 49bd aa9f a9bd
-0.040495146 -0.024295565 0.14656311 0.0042026453 0.120457985 0.10495888 -0.05250454 -0.09058524
0.033264272 -0.02650115 -0.03506771 -0.054637663 -0.1288625 0.06843327 -0.0748853 -0.0015732321
0.055344626 0.032404818 0.111722894 0.0025042556 0.10623859 0.08116863 0.008210183 0.04495873
-0.09882578 -0.09209152 0.088490225 -0.047832157 0.06958663 0.02146379 -0.0073380554 0.04635198
-0.12064059 0.052098442 -0.061293755 -0.0051850197 0.1130651 -0.05032478 -0.008751452 -0.10975602
0.098778315 -0.022267869 0.019886652 0.009543931 0.08429189 0.022142993 -0.03628017 0.044166654
-0.08417283 -0.003912187 0.1024352 -0.0127962865 -0.09142391 0.055123426 -0.10161154 0.07751095
0.03969701 -0.058910567 -0.068096176 0.055947084 0.035312317 0.12640533 -0.077404745 -0.058394633
-0.034080345 0.013111895 -0.032543175 0.093127966 0.016676044 0.08458611 -0.13564293 0.10992151
-0.06108334 -0.00960667 -0.014333104 -0.0070905206 0.08108543 -0.053764366 0.061248306 -0.012834491
0.028720584 0.0020302823 -0.052852806 -0.15182766 -0.033925388 -0.01868387 0.010920146 -0.03868909
0.025191514 -0.07174924 0.035373267 -0.043093286 0.04469652 -0.05371722 -0.08887851 -0.07123674
0.0014907261 -0.10643797 -0.09913074 -0.007153149 -0.05266288 -0.015537177 -0.027237602 0.07008723
0.0951557 -0.026925474 -0.08545875 -0.027644163 0.06316113 0.05288247 0.038574267 0.07443502
-0.042447302 -0.015999082 -0.0084293885 -0.045268986 -0.11219947 -0.035717443 -0.09249699 -0.034435313
0.079903975 -0.030680927 -0.09790118 0.005284382 -0.0005819558 -0.011630245 -0.049288873 -0.08282407

net.4.weight f4 [26, 128]
00000000: 9a5e d4bd b075 3e3d d616 5b3e 8a05 8fbe
00000010: dbea 773e 875f 0dbe 5f17 79bc 096f babd
00000020: 591e d2ba a246 81be bd7d 6f3e d156 923d
00000030: 1243 94bd c778 253e e9bf a1bd ef13 553e
00000040: 71ed de3d bccd a03e 9b7d 7ebc 271b e8be
00000050: a225 143d 5935 7abe b98c 333d fdf1 4c3c
00000060: 0c11 09be b0ae d73d 78af 03be 19bd 1dbe
00000070: 8efd 1bbe 5d36 1cbe df30 243d 7210 603d
00000080: 50d7 393d d6af e43c 6c93 113d bd7b a43d
00000090: 32a6 06be 9b10 603e 980e d43a 4046 dfbb
000000a0: 708a 92bd dfb5 853e da62 c63c 0e8e 9fbd
000000b0: 610f 763d 71a1 fd3c 965e 41be 560a 013e
000000c0: f2fc c0bd 50e8 833b 9857 023e 12ae 8b3a
000000d0: 1414 343d 6d10 923c e8a0 01bc 86c4 f1bd
000000e0: 3f4a bb3b d599 3dbe 9f69 083c 4594 3abe
000000f0: 7495 1a3c 0c69 9fbd ba03 c53c 441e 783d
00000100: b31e 8a3e 066e 00bb 9191 513e d6a2 61be
00000110: bd94 01be 322b a9bc 197d af3e 2e22 13be
00000120: fc1d 1fbe 1094 08be 8ad8 acbd a7e4 073e
00000130: d1e3 443d 6a00 633d c7a7 12be 8d50 0dbe
00000140: f243 993c 5a83 2c3d ded5 293e 2608 90bd
00000150: f810 a7bd dd56 b83e 0bb5 78be 9391 223d
00000160: 3047 a2bc 6cf0 05bc fb92 1b3e 815e 3fbe
00000170: 90a8 0a3d c43a 7c3d bc44 a33c 621f 463d
00000180: a856 2dbe 8d93 aabc af40 353e 1d87 8cbc
00000190: 2769 b43d e91a 37be 1d8d 97bd dc6b bebd
000001a0: 4682 4b3e ecac 353e aa6f eabd 5fb5 03be
000001b0: f6b3 9abe 5944 4b3e 0ee7 6b3d 7600 95bc
000001c0: 634f 4ebc 4d2e 203e c0f9 b93c 7e7b b43e
000001d0: 2844 5abd 3dab 82be f98e 6d3d c6e1 953b
000001e0: dbec 2ebe 84e4 293e 279d c93e bee9 fcbd
000001f0: 90aa 023e f33e 1ebe 7339 eebd 06f8 0a3e
00000200: d7b9 26bc ad98 a9bc f27e 423e 4cb0 91bd
00000210: d8d0 bc3d a9ce 33be 1557 3a3d d9ce 8ebd
00000220: 83a9 0cbe d664 95be 3e4d 2bbd 8621 3a3d
00000230: c54f feba 6a0c 1bbe 20ed a7bd ca41 a53d
00000240: 5a80 8fbc b9cd d3bd 61bd 06bd 5be9 3bbe
00000250: 2a69 7a3c 9951 8ebd 21a0 213e c3dd bebd
00000260: f69e a6be 6b94 8f3d 1f61 41bc 53c7 14be
00000270: ed65 993e 8a0d 0abd 0e71 53be 1939 91be
00000280: b223 78bb f434 2b3e b8aa 2abc cf23 19be
00000290: 7630 373e f1da 753e 79d1 0cbe 6546 613d
000002a0: 8804 aebd 1a5e 543e 7437 38be b7aa 50bd
000002b0: 1094 f8bd 6533 103e 3c37 913d a2c8 393c
000002c0: 82f5 7e3d ec7a ec3b f89d 62be a612 f53d
000002d0: f017 83bd f391 8bbd c882 c9bc 30dc 573d
000002e0: 49f1 0ebc f913 5dbd 3873 6d3d ce03 87be
000002f0: ef5a a4bd 84b0 d63d d1b5 adbd e30b 20be
00000300: 35a0 093e 6f9a 113d bf89 113e 97fe a13e
00000310: b591 44bd 9619 16be 0e6c a53d 6dd3 793d
00000320: 824f 54bc a462 75bd 37af a0be 6444 663e
00000330: 5b1f b7be 542d f4bb 7598 8fbe 99df 3abd
00000340: 45fe cdbd 7900 9b3d d50e 41bd 00fc 1abe
00000350: 0c96 05be 698c 1bbd cb05 02be 3bc4 9c3d
00000360: ee29 0cbd 930d 44bd e7e3 6cbe 5bd8 d5bd
00000370: 968e 373e b2ca 213c 2054 413b 1192 303e
00000380: e007 32bc c010 dabb 5762 9e3d 9189 9e3d
00000390: 8e85 183e b708 07be dbf7 c63d 2980 14bb
000003a0: d555 46be 234f 493d 2842 57bc cd22 e5bd
000003b0: b64f c83c fc08 d43d 5363 32be c13f 2c3d
000003c0: ecf2 f13c c9a3 7f3e ec16 473e 3a0f 323e
000003d0: 0b0f a2bd 7c1d 393d 2f92 793b 3d08 9fbd
000003e0: 6996 6a3d 5f0d a43e dff2 833d 5cf5 74bd
000003f0: 3707 343b 9663 dfbc d467 d33c 5eeb 30be
-0.10369606 0.046498954 0.2139543 -0.27933913 0.24210684 -0.13805972 -0.015203326 -0.091032095
-0.0016030773 -0.252492 0.23387809 0.07145465 -0.07239355 0.16159354 -0.07897932 0.20808385
0.10885132 0.31406963 -0.015532876 -0.45333216 0.036168702 -0.24434413 0.043835375 0.012508866
-0.13385409 0.10531366 -0.12859905 -0.15404166 -0.15233442 -0.15255113 0.04008567 0.054703183
0.045371354 0.027915876 0.035540983 0.08031414 -0.13149336 0.21881334 0.0016178666 -0.0068137944
-0.07155311 0.2611532 0.024217058 -0.07790767 0.06007326 0.03096077 -0.18883738 0.12601599
-0.094232455 0.0040254965 0.12728727 0.0010656735 0.04396446 0.017830098 -0.007911898 -0.11805062
0.005715638 -0.18515714 0.008325963 -0.18220623 0.009435046 -0.07783708 0.024049629 0.06057574
0.26976547 -0.001959683 0.20465685 -0.22034773 -0.12654395 -0.02065048 0.3427513 -0.14368507
-0.15538782 -0.13337731 -0.08439739 0.13270818 0.048068825 0.055420317 -0.14321814 -0.13800259
0.018709157 0.042117454 0.1658549 -0.07032804 -0.081575334 0.3600377 -0.24287812 0.03968961
-0.019809335 -0.008174997 0.15192787 -0.18688394 0.03385216 0.06157948 0.019930236 0.048369773
-0.16927588 -0.02082231 0.17700456 -0.01715427 0.08809119 -0.17881359 -0.07399962 -0.09297916
0.19873914 0.17741746 -0.114470795 -0.12862156 -0.30215424 0.19850291 0.057593398 -0.018188696
-0.012592169 0.15642662 0.022702098 0.35250467 -0.053287655 -0.2552127 0.057997677 0.0045740334
-0.1708254 0.16591078 0.3937771 -0.1234927 0.12760377 -0.154537 -0.11632051 0.13571176
-0.010176144 -0.020702684 0.18993738 -0.07113704 0.09219521 -0.17559303 0.045493204 -0.06973047
-0.13736539 -0.29178494 -0.04182171 0.045442127 -0.0019402435 -0.15141454 -0.08199525 0.08069189
-0.017517257 -0.10341973 -0.03289545 -0.18350737 0.015283862 -0.06949157 0.1578374 -0.093196414
-0.32543153 0.0701073 -0.011802941 -0.14529161 0.29960576 -0.033704318 -0.20648596 -0.28363875
-0.0037863073 0.16719419 -0.010416679 -0.14955066 0.1788958 0.24009301 -0.13751782 0.054998774
-0.08496958 0.20739022 -0.17989904 -0.050944056 -0.12137616 0.14082105 0.07090613 0.0113393385
0.062245853 0.007216802 -0.22130573 0.119664475 -0.0640105 -0.06814947 -0.024598494 0.05270022
-0.008724519 -0.053974126 0.05797121 -0.2637009 -0.08025157 0.104828864 -0.08481944 -0.15629534
0.1344002 0.03554767 0.14212702 0.3163955 -0.04799052 -0.14658198 0.080772504 0.060992647
-0.012958409 -0.059908524 -0.31383678 0.22487026 -0.3576611 -0.0074516926 -0.28046003 -0.045623396
-0.10058264 0.075684495 -0.047133286 -0.15135193 -0.1304552 -0.037975702 -0.12697522 0.076546155
-0.034219675 -0.047864508 -0.23133813 -0.10441657 0.17925486 0.0098749865 0.0029499605 0.1724322
-0.010866135 -0.006654829 0.077336006 0.077410825 0.14894697 -0.13186918 0.097152434 -0.0022659397
-0.1936868 0.049147736 -0.0131383315 -0.11188278 0.024452072 0.10353276 -0.17420702 0.042052988
0.02953478 0.24964823 0.19442338 0.17388621 -0.079130255 0.045194134 0.0038081517 -0.07765243
0.05727235 0.3204145 0.06442808 -0.059804305 0.002747012 -0.027269166 0.025806345 -0.17277285

net.4.bias f4 [26]
00000000: a783 6abd 7b6b 953d 0821 243b dc3c 633c
00000010: b15e d53d c26e bbbd e86a 353d 94bc d6bd
00000020: 13cf 323d 7ad5 813d 2288 cc3d 2eb8 373d
00000030: 7dd7 4cbc a492 a83c 3b00 5f3d 0b8f 733c
00000040: db9a d1bd 2650 9c3a 3c8f 9b3d 357f 80bc
00000050: b374 4bbd 3ec0 8ebd 14c7 f1bd 2935 60bd
00000060: c754 bebb 317b 3ebd
-0.05725446 0.07295891 0.0025044102 0.0138694905 0.104184516 -0.09151985 0.044291407 -0.10485187
0.043654513 0.063395455 0.09986903 0.04485338 -0.012502548 0.020577736 0.05444358 0.014865647
-0.102346145 0.0011925742 0.07595679 -0.015685657 -0.04967184 -0.06970261 -0.11805549 -0.054738197
-0.005808446 -0.046504203
